news_sentiment_app/assets/news_sentiment_model.tflite (tflite, 279008 bytes, 11 tensors)

arith.constant10 f4 [3]
000000 5c b9 d1 3d 83 8d 1b bd db 71 6a bd
       0.102404326 -0.037976753 -0.057237487

arith.constant11 f4 [24]
000000 27 c3 20 3d 92 5c be bc a3 9a a4 3c a3 01 19 3d
       0.03924861 -0.0232375 0.020093268 0.037355077
000010 0c 7f ab 3d 0e 24 8a bd b0 81 18 bd eb 78 e7 bc
       0.08373842 -0.06745158 -0.037233055 -0.0282559
000020 e2 48 78 3d e5 46 33 3d 1d 69 6e 3d 09 68 23 bc
       0.06061638 0.043768782 0.058205713 -0.009973534
000030 95 8d 4e bd 8b 39 b3 bc af ae b6 bc e4 49 3f 3b
       -0.050427992 -0.021878025 -0.022300093 0.002918833
000040 40 93 cc bb 12 5f 8a 3c e1 76 dd bc 51 19 45 bd
       -0.0062431395 0.016891036 -0.027034225 -0.048119847
000050 33 b2 fb 3c 35 e2 fd bb 1f c1 80 3d f5 21 5d 3b
       0.03072462 -0.0077479132 0.06286835 0.0033742164

arith.constant15 f4 [3, 24]
000000 4c 42 eb be 35 9c 06 bf e2 55 08 3c 87 1a 1f 3d
       -0.45949018 -0.52582103 0.008321257 0.038843658
000010 9f cd d6 3d a0 db 4d bc 30 c4 25 bf fc fc 2c 3e
       0.10488438 -0.01256457 -0.64752483 0.16893381
000020 08 51 c9 be 84 24 70 3e e8 51 de bd 08 c3 b4 be
       -0.39319634 0.2345143 -0.10855466 -0.35305047
000030 e0 96 2c be e3 ab 95 3e 21 c0 5d 3e 30 cd bf 3e
       -0.16854429 0.29232702 0.21655323 0.37461233
000040 44 2d a1 bd e7 94 5b 3e 84 45 a3 be 61 fa a0 3e
       -0.07869962 0.2144352 -0.31888974 0.31441024
000050 ba b9 4a bf ec fc b7 be ae 55 f2 3d fa 2b 82 be
       -0.79189646 -0.35935152 0.11832748 -0.25424176
000060 da e2 e3 be c5 8e 80 be 2d 04 14 bf 7b 28 4c bf
       -0.44509012 -0.25108925 -0.5781887 -0.7974927
000070 b7 fb bd be 26 97 f2 be 4b 62 b7 be 0e 56 81 be
       -0.37106106 -0.47380942 -0.3581718 -0.25260967
000080 65 92 d9 3e aa 30 b6 3e d7 41 02 3f 15 9f 13 3f
       0.42494503 0.35584003 0.50881714 0.57664615
000090 d7 4f 6c be 40 65 2c be 3d 28 c2 be fa 3d 17 bf
       -0.23077331 -0.16835499 -0.37921324 -0.59078944
0000a0 5c df 22 bf af 37 05 bf 4e 87 02 3f 99 f5 b4 be
       -0.6362207 -0.5203809 0.5098771 -0.35343626
0000b0 91 09 ee bb 8d 63 91 3e 73 8b 01 3f be 30 fd 3e
       -0.007264324 0.28396264 0.5060341 0.4945125
0000c0 48 30 77 3e 74 ab d3 3e 80 78 c0 be 31 74 5e bd
       0.24139512 0.41341746 -0.37591934 -0.054310028
0000d0 54 e6 bb 3e 50 be 0a bf 55 82 18 3e 3d f8 8a be
       0.36699164 -0.54196644 0.14893468 -0.27142516
0000e0 0c 7e ed be a7 81 1c bf a4 d3 41 bf 2a 25 c9 be
       -0.4638523 -0.61135334 -0.7571356 -0.39286166
0000f0 a2 ac 14 3f 79 e6 1c bf bc 7e ea bd cd 15 ea 3e
       0.58075917 -0.61289173 -0.11449954 0.45719758
000100 67 97 dd 3e a0 21 b7 be 9b 3b c7 be 28 f8 00 be
       0.43279573 -0.3576784 -0.38912663 -0.12594664
000110 c2 e0 58 3e b9 04 32 3f b4 80 58 be 7d 30 ec be
       0.21179488 0.69538456 -0.21142846 -0.46130744

tfl.pseudo_qconst i1 [24, 48]
000000 17 c0 3a d2 d4 fb db 24 2e 1f cb c3 49 20 d3 e3
       23 -64 58 -46 -44 -5 -37 36 46 31 -53 -61 73 32 -45 -29
000010 c1 0d d4 17 22 1b 24 fa 09 d1 36 2e e2 18 0e e4
       -63 13 -44 23 34 27 36 -6 9 -47 54 46 -30 24 14 -28
000020 05 c4 51 81 2c cb 31 ec e6 14 65 15 15 44 1a bf
       5 -60 81 -127 44 -53 49 -20 -26 20 101 21 21 68 26 -65
000030 3e 1a cc d2 14 d5 29 1c eb e8 c8 03 1d da 00 f6
       62 26 -52 -46 20 -43 41 28 -21 -24 -56 3 29 -38 0 -10
000040 f2 d4 28 16 30 bb e1 d8 da 17 e2 4f d5 e3 44 b5
       -14 -44 40 22 48 -69 -31 -40 -38 23 -30 79 -43 -29 68 -75
000050 f5 c1 5a 87 6c 06 7f 1f e5 e4 08 04 5e 27 33 9c
       -11 -63 90 -121 108 6 127 31 -27 -28 8 4 94 39 51 -100
000060 c1 17 3e ee d5 ce e2 c2 c6 f5 0a 03 ed 2c 23 24
       -63 23 62 -18 -43 -50 -30 -62 -58 -11 10 3 -19 44 35 36
000070 bd dc 21 e0 fa e8 31 ff ea b6 69 f5 fd 1c cb 48
       -67 -36 33 -32 -6 -24 49 -1 -22 -74 105 -11 -3 28 -53 72
000080 0b 26 29 36 a9 4b 81 19 59 c9 f3 56 c9 34 d4 48
       11 38 41 54 -87 75 -127 25 89 -55 -13 86 -55 52 -44 72
000090 33 f4 08 14 e3 32 2c 19 0e 12 e5 2d 10 d1 1a dc
       51 -12 8 20 -29 50 44 25 14 18 -27 45 16 -47 26 -36
0000a0 cf 33 f0 f1 cf 24 e8 0d a1 94 50 5e ac 93 c5 30
       -49 51 -16 -15 -49 36 -24 13 -95 -108 80 94 -84 -109 -59 48
0000b0 47 6d 6d 00 06 7f e9 62 2f 77 40 53 02 6a fb 0f
       71 109 109 0 6 127 -23 98 47 119 64 83 2 106 -5 15
0000c0 d3 d0 fb 14 df 1d 09 15 2b ef b8 04 26 1e 26 fa
       -45 -48 -5 20 -33 29 9 21 43 -17 -72 4 38 30 38 -6
0000d0 cb f7 4a e9 b8 11 2d 28 98 c1 30 60 f1 2e 19 4d
       -53 -9 74 -23 -72 17 45 40 -104 -63 48 96 -15 46 25 77
0000e0 51 d0 6e d0 e6 00 7f fe cd 57 70 cc 7a 6c 60 ca
       81 -48 110 -48 -26 0 127 -2 -51 87 112 -52 122 108 96 -54
0000f0 15 e8 d9 d8 fd 0e 0f 42 00 fd e6 4c b6 fd e2 cf
       21 -24 -39 -40 -3 14 15 66 0 -3 -26 76 -74 -3 -30 -49

tfl.pseudo_qconst1 i1 [10000, 24] scale=0.003217258 zero_point=0
000000 0b 0f f9 f2 01 09 e3 24 13 15 e2 d1 07 ef 0c f2
       0.035389837 0.04825887 -0.022520807 -0.045041613 0.003217258 0.028955322 -0.093300484 0.11582129 0.0611279 0.067562416 -0.09651774 -0.15121113 0.022520807 -0.054693386 0.0386071 -0.045041613
000010 ee 2c eb f5 e2 25 fc e5 0b f5 fc 06 0c 0e 0f 0b
       -0.057910644 0.14155935 -0.067562416 -0.035389837 -0.09651774 0.119038545 -0.012869032 -0.08686597 0.035389837 -0.035389837 -0.012869032 0.01930355 0.0386071 0.045041613 0.04825887 0.035389837
000020 0f f1 09 f9 01 08 f6 f8 03 0b 0b 04 fb 0d 02 f7
       0.04825887 -0.04825887 0.028955322 -0.022520807 0.003217258 0.025738064 -0.03217258 -0.025738064 0.009651775 0.035389837 0.035389837 0.012869032 -0.01608629 0.041824356 0.006434516 -0.028955322
000030 f6 fd 01 fa 11 00 03 e6 05 06 06 0e dc 05 f6 03
       -0.03217258 -0.009651775 0.003217258 -0.01930355 0.054693386 0.0 0.009651775 -0.08364871 0.01608629 0.01930355 0.01930355 0.045041613 -0.11582129 0.01608629 -0.03217258 0.009651775
000040 fc d7 11 09 ff e3 14 04 11 0c f8 13 15 0b 0d f4
       -0.012869032 -0.13190758 0.054693386 0.028955322 -0.003217258 -0.093300484 0.06434516 0.012869032 0.054693386 0.0386071 -0.025738064 0.0611279 0.067562416 0.035389837 0.041824356 -0.0386071
000050 ec 0c 13 09 f4 0e 0b 09 05 fd 0e 05 f8 ea 0b 0c
       -0.06434516 0.0386071 0.0611279 0.028955322 -0.0386071 0.045041613 0.035389837 0.028955322 0.01608629 -0.009651775 0.045041613 0.01608629 -0.025738064 -0.070779674 0.035389837 0.0386071
000060 e9 f5 09 fd 08 0d 0e ec 02 fe 04 01 f5 0e 08 03
       -0.07399693 -0.035389837 0.028955322 -0.009651775 0.025738064 0.041824356 0.045041613 -0.06434516 0.006434516 -0.006434516 0.012869032 0.003217258 -0.035389837 0.045041613 0.025738064 0.009651775
000070 14 fc 02 0d 11 11 0c 0d f4 fb fe 0b 00 00 fc 03
       0.06434516 -0.012869032 0.006434516 0.041824356 0.054693386 0.054693386 0.0386071 0.041824356 -0.0386071 -0.01608629 -0.006434516 0.035389837 0.0 0.0 -0.012869032 0.009651775
000080 e8 11 f5 f4 fb 03 0a f5 fd f3 f2 04 03 f8 f4 06
       -0.0772142 0.054693386 -0.035389837 -0.0386071 -0.01608629 0.009651775 0.03217258 -0.035389837 -0.009651775 -0.041824356 -0.045041613 0.012869032 0.009651775 -0.025738064 -0.0386071 0.01930355
000090 06 fc f8 05 11 15 05 09 03 04 fd 1b eb 09 07 f3
       0.01930355 -0.012869032 -0.025738064 0.01608629 0.054693386 0.067562416 0.01608629 0.028955322 0.009651775 0.012869032 -0.009651775 0.08686597 -0.067562416 0.028955322 0.022520807 -0.041824356
0000a0 11 11 fd 06 f9 f5 1d 12 f0 00 14 fc 14 0d 14 ef
       0.054693386 0.054693386 -0.009651775 0.01930355 -0.022520807 -0.035389837 0.093300484 0.057910644 -0.05147613 0.0 0.06434516 -0.012869032 0.06434516 0.041824356 0.06434516 -0.054693386
0000b0 ec 0a f5 11 00 f1 08 05 0e eb ff 00 0f fc f9 ff
       -0.06434516 0.03217258 -0.035389837 0.054693386 0.0 -0.04825887 0.025738064 0.01608629 0.045041613 -0.067562416 -0.003217258 0.0 0.04825887 -0.012869032 -0.022520807 -0.003217258
0000c0 06 f3 07 01 ff 0c ef fa ff ff ff 00 0b 0f fb f7
       0.01930355 -0.041824356 0.022520807 0.003217258 -0.003217258 0.0386071 -0.054693386 -0.01930355 -0.003217258 -0.003217258 -0.003217258 0.0 0.035389837 0.04825887 -0.01608629 -0.028955322
0000d0 18 15 11 f9 f2 02 04 02 0a 02 09 08 0b ff f1 01
       0.0772142 0.067562416 0.054693386 -0.022520807 -0.045041613 0.006434516 0.012869032 0.006434516 0.03217258 0.006434516 0.028955322 0.025738064 0.035389837 -0.003217258 -0.04825887 0.003217258
0000e0 08 fe 08 fc fb 00 03 fe 02 fc 06 ff 06 03 02 03
       0.025738064 -0.006434516 0.025738064 -0.012869032 -0.01608629 0.0 0.009651775 -0.006434516 0.006434516 -0.012869032 0.01930355 -0.003217258 0.01930355 0.009651775 0.006434516 0.009651775
0000f0 f9 07 12 e8 0f fc 16 ec 07 ed 17 0c f5 f8 00 f8
       -0.022520807 0.022520807 0.057910644 -0.0772142 0.04825887 -0.012869032 0.070779674 -0.06434516 0.022520807 -0.0611279 0.07399693 0.0386071 -0.035389837 -0.025738064 0.0 -0.025738064

arith.constant19 f4 [96]
000000 6b a1 63 3e 3b 92 3f 3e 4e 33 2e 3e 8f 1b 16 3e
       0.22229545 0.18708126 0.17011759 0.1465895
000010 ec ed 64 3d ee f4 06 3c 02 f2 82 3d c3 91 48 3e
       0.055890962 0.008237107 0.063938156 0.19586854
000020 2f 09 0f 3e eb c8 66 3e 64 c0 2a 3e 8a a3 11 3e
       0.13968347 0.22537582 0.16674954 0.14222541
000030 f9 26 05 3e bd fb a3 3d 7d b2 37 3e 9a 5c 70 3d
       0.13003148 0.08007 0.17939182 0.05868206
000040 01 8c 2b 3e c5 ac 77 3e 45 66 1f 3e a9 f6 79 3e
       0.16752626 0.24187 0.15566356 0.244105
000050 43 d2 23 3e 32 90 54 3e 36 9d 51 3e 59 69 35 3e
       0.15998177 0.20758131 0.20470127 0.17715968
000060 d2 37 89 3f 78 37 85 3f 75 b3 8a 3f 7c 2e 87 3f
       1.072016 1.0407553 1.0836016 1.0561061
000070 b7 17 82 3f ba 16 72 3f d9 e9 7a 3f 6b fe 89 3f
       1.0163487 0.9456593 0.98013073 1.0780767
000080 3b 6e 7d 3f 9d db 8b 3f 25 01 85 3f 75 98 83 3f
       0.98996323 1.0926396 1.0390974 1.0280901
000090 34 96 85 3f b4 fc 7b 3f 52 3e 86 3f ab c3 7d 3f
       1.0436463 0.9843247 1.0487769 0.9912669
0000a0 a6 8a 84 3f ad 3c 87 3f 7a b1 86 3f 6c 84 85 3f
       1.0354812 1.0565392 1.0522912 1.0431037
0000b0 79 ea 85 3f da 7f 88 3f 30 02 8c 3f d2 bd 86 3f
       1.046218 1.0664017 1.0938168 1.0526679
0000c0 57 08 37 bc c2 e9 d0 bb 06 ac 37 bb a9 65 fc 3c
       -0.011171422 -0.0063755224 -0.0028026118 0.030810194
0000d0 a6 91 58 bd 0a 2e b7 3c c8 c5 ce bc 5f 47 57 3d
       -0.052873276 0.02236082 -0.025240794 0.0525583
0000e0 0a 49 4c 3b 61 9a c6 bc bc 3e bc 3b 48 2c 91 3c
       0.0031171464 -0.024243535 0.005744783 0.01772131
0000f0 f1 0d 10 bc bf 42 79 3c 3e 9a 70 3c 3c 0a 4d bc
       -0.008792386 0.015213667 0.014685212 -0.012514647
000100 c0 be 03 bd a0 e9 a5 3d f7 b1 96 3c 03 94 86 3c
       -0.032164335 0.08101201 0.018395407 0.016428
000110 bd 0f 43 bc 71 8c 59 3c 50 49 92 3c 0e 45 0f bc
       -0.011905608 0.013278113 0.017857224 -0.008744491
000120 79 2d 72 3e 25 16 67 3e c0 03 29 3e c5 82 19 3e
       0.23650159 0.22567041 0.16505337 0.14991291
000130 fc 70 80 3d b6 a9 1b 3c 4f 8c a1 3d 0e 06 67 3e
       0.0627155 0.009500911 0.0788809 0.22560903
000140 8c 3c 0b 3e 51 ed 6c 3e 95 a4 39 3e ad 07 1e 3e
       0.13597316 0.23137404 0.1812919 0.15432616
000150 d8 0c 10 3e d0 7d 98 3d f8 32 3a 3e 10 d4 86 3d
       0.140674 0.07445872 0.18183506 0.065834165
000160 cb 39 2d 3e 0a 37 92 3e 82 51 38 3e 36 5d 83 3e
       0.16916578 0.28557616 0.17999843 0.25657052
000170 43 95 2e 3e 01 c7 70 3e 07 e7 50 3e 6e 38 57 3e
       0.17049126 0.23513414 0.2040063 0.2101762

tfl.pseudo_qconst2 i1 [96, 24]
000000 ce ff 34 e4 00 b8 20 db bf 85 44 48 81 36 31 57
       -50 -1 52 -28 0 -72 32 -37 -65 -123 68 72 -127 54 49 87
000010 4c b0 26 29 3a e0 24 38 f7 c6 fb 25 e4 13 22 ef
       76 -80 38 41 58 -32 36 56 -9 -58 -5 37 -28 19 34 -17
000020 a0 dd 48 22 81 fc d7 17 30 cc f9 29 40 a3 0a 27
       -96 -35 72 34 -127 -4 -41 23 48 -52 -7 41 64 -93 10 39
000030 6f af f8 45 08 06 04 a9 99 eb 7c 4f dd 46 5e 22
       111 -81 -8 69 8 6 4 -87 -103 -21 124 79 -35 70 94 34
000040 17 a2 79 cc 7f a2 33 53 fc e3 f0 9d 81 a3 06 01
       23 -94 121 -52 127 -94 51 83 -4 -29 -16 -99 -127 -93 6 1
000050 ec e2 2e 1f e2 17 ee 26 cb d0 e8 f8 2b 21 03 04
       -20 -30 46 31 -30 23 -18 38 -53 -48 -24 -8 43 33 3 4
000060 11 16 e2 fc 05 06 ca f9 f3 a8 5f e7 81 74 e8 5a
       17 22 -30 -4 5 6 -54 -7 -13 -88 95 -25 -127 116 -24 90
000070 33 a9 00 1a f7 a6 53 ef fa 84 f1 23 37 e5 2f e6
       51 -87 0 26 -9 -90 83 -17 -6 -124 -15 35 55 -27 47 -26
000080 81 cf 04 15 ab 41 e9 08 0b c4 eb ee 74 99 f7 37
       -127 -49 4 21 -85 65 -23 8 11 -60 -21 -18 116 -103 -9 55
000090 ec df fc 6d 45 1a 3f c8 81 cf 25 2f f6 06 f9 f6
       -20 -33 -4 109 69 26 63 -56 -127 -49 37 47 -10 6 -7 -10
0000a0 71 fb 1a e8 f9 9d f8 48 f2 c6 c8 f3 de e2 20 ef
       113 -5 26 -24 -7 -99 -8 72 -14 -58 -56 -13 -34 -30 32 -17
0000b0 b5 df 26 1c 82 5d 15 33 4c a1 0f 7f 46 f1 4d e6
       -75 -33 38 28 -126 93 21 51 76 -95 15 127 70 -15 77 -26
0000c0 03 29 2f fa 1c 81 18 c0 f4 d2 5e 39 d5 2c 00 1a
       3 41 47 -6 28 -127 24 -64 -12 -46 94 57 -43 44 0 26
0000d0 36 b3 0e 35 2b 0f 5a 01 1e bb fc c6 14 03 25 cc
       54 -77 14 53 43 15 90 1 30 -69 -4 -58 20 3 37 -52
0000e0 f1 28 69 30 93 7f 34 23 11 d1 57 4e 24 8c 25 3d
       -15 40 105 48 -109 127 52 35 17 -47 87 78 36 -116 37 61
0000f0 c9 e2 2c f4 9f 93 24 de d9 98 54 24 de 2d df 7f
       -55 -30 44 -12 -97 -109 36 -34 -39 -104 84 36 -34 45 -33 127

tfl.pseudo_qconst3 i1 [96, 24]
000000 05 c4 50 7f f3 e0 08 0d 3d c1 2e 0b e5 f2 ce e4
       5 -60 80 127 -13 -32 8 13 61 -63 46 11 -27 -14 -50 -28
000010 28 f5 01 21 d6 0e 33 f1 a1 18 37 11 10 0f ce 40
       40 -11 1 33 -42 14 51 -15 -95 24 55 17 16 15 -50 64
000020 5b d7 5e 11 8c 41 c1 12 7f 4e 99 4e cd df ef d9
       91 -41 94 17 -116 65 -63 18 127 78 -103 78 -51 -33 -17 -39
000030 dd 0c 6e cd d8 dd e3 0c 39 7f 01 1a a4 16 90 de
       -35 12 110 -51 -40 -35 -29 12 57 127 1 26 -92 22 -112 -34
000040 30 ed 06 24 f2 02 00 28 e2 f7 db ff fc c3 59 cc
       48 -19 6 36 -14 2 0 40 -30 -9 -37 -1 -4 -61 89 -52
000050 42 de e2 e3 68 05 3a d4 f3 17 dc ef ec 13 7f 9a
       66 -34 -30 -29 104 5 58 -44 -13 23 -36 -17 -20 19 127 -102
000060 fd 27 08 c9 1d 7f ec df 50 06 cb 10 11 e3 c7 d3
       -3 39 8 -55 29 127 -20 -33 80 6 -53 16 17 -29 -57 -45
000070 e0 81 b4 3c c0 04 eb 1b ce f4 1d f6 ea f2 2c 29
       -32 -127 -76 60 -64 4 -21 27 -50 -12 29 -10 -22 -14 44 41
000080 7f 26 09 c2 2f 34 0f 1c 9f 2f d5 0a fb 1b d2 f2
       127 38 9 -62 47 52 15 28 -97 47 -43 10 -5 27 -46 -14
000090 45 d0 28 a0 1c fb cc 18 1a 26 22 0c f2 75 c6 0f
       69 -48 40 -96 28 -5 -52 24 26 38 34 12 -14 117 -58 15
0000a0 48 fd d1 57 04 f1 bb 7f 13 63 38 49 0f fb ea ea
       72 -3 -47 87 4 -15 -69 127 19 99 56 73 15 -5 -22 -22
0000b0 f7 01 14 7f 0c de f8 e4 ba bf c8 5a b7 cb bf 5a
       -9 1 20 127 12 -34 -8 -28 -70 -65 -56 90 -73 -53 -65 90
0000c0 a1 e5 00 1c e7 d3 0e 18 0b c6 5f e9 26 04 bc 1b
       -95 -27 0 28 -25 -45 14 24 11 -58 95 -23 38 4 -68 27
0000d0 31 3d 05 11 7f 23 13 cd 8f dd 65 f5 9a c0 9f 52
       49 61 5 17 127 35 19 -51 -113 -35 101 -11 -102 -64 -97 82
0000e0 78 4d 0d 0e a5 06 91 19 7f e5 0f 38 d8 21 a0 26
       120 77 13 14 -91 6 -111 25 127 -27 15 56 -40 33 -96 38
0000f0 aa b6 24 56 ea d7 c4 45 52 e0 51 11 fd a8 d9 46
       -86 -74 36 86 -22 -41 -60 69 82 -32 81 17 -3 -88 -39 70

arith.constant23 f4 [96]
000000 5e 45 5e bc 31 77 2e 3d e5 94 27 bd 8f a5 c1 bc
       -0.013566343 0.04259414 -0.04091348 -0.023638515
000010 13 b0 d7 bc 79 8c f8 bc 59 21 05 bd 5f 2c c1 bb
       -0.026329076 -0.03034042 -0.032502506 -0.005895182
000020 79 77 44 bd 1d 49 35 bd db 90 83 bd 6b 28 9d bc
       -0.0479655 -0.04425918 -0.06424113 -0.019184312
000030 00 53 7b 3c b1 86 08 bd 18 3f a7 bd 5f b8 a8 3c
       0.015339613 -0.033331577 -0.08166331 0.020595727
000040 3f 1f 01 bd 34 5d 2b 3c 21 fe 9a bc 17 3c 82 bd
       -0.03152394 0.010459233 -0.018920006 -0.063591175
000050 27 a1 63 bd d5 32 89 bd 5c 89 2c bd d5 30 28 bd
       -0.05557361 -0.066991486 -0.042123184 -0.041062195
000060 d4 46 7c 3f f3 e2 84 3f dc c9 74 3f d0 af 79 3f
       0.98545575 1.038176 0.9562051 0.97533894
000070 5f cd 78 3f c0 4b 78 3f fd 64 78 3f 45 f9 7d 3f
       0.9718837 0.96990585 0.97029096 0.9920848
000080 c8 d2 73 3f 48 b6 74 3f f1 5f 70 3f 38 bc 7a 3f
       0.952435 0.9559064 0.93896395 0.9794345
000090 73 56 81 3f cb 6e 78 3f ae 0f 6c 3f 8c 37 82 3f
       1.0104507 0.97044057 0.92211425 1.0173202
0000a0 5f 20 78 3f 34 67 81 3f 71 02 7b 3f 15 81 70 3f
       0.96924394 1.010962 0.980506 0.93946964
0000b0 84 ee 71 3f c2 38 6f 3f b9 35 75 3f 4b 10 76 3f
       0.9450457 0.9344598 0.957851 0.9611861
0000c0 b1 f5 83 bc 5c f5 5f bd 4e 92 cb 3b 2c 66 c5 3c
       -0.016108366 -0.054677352 0.0062125092 0.02409657
0000d0 67 b5 8a 3c 87 ce 54 bc 29 a4 ad bc 10 dd 64 bc
       0.016932203 -0.012988693 -0.021196442 -0.013968721
0000e0 4b 33 1e bc a3 b2 8c bb 16 06 98 3b 7a a6 05 bc
       -0.009655784 -0.004293756 0.0046393974 -0.008157367
0000f0 9b 5f 53 3d 2c 20 e3 3b ef 42 59 3b aa b2 2f 3d
       0.05160485 0.0069313254 0.0033151468 0.042894997
000100 85 c7 93 3b b2 49 6a bd 56 ce d1 bc d4 24 b2 bb
       0.0045098686 -0.057199188 -0.025611084 -0.005436519
000110 39 3a 9f bb c2 c9 5c bb 97 21 d5 3c 3f 1f 2e 3c
       -0.0048592356 -0.0033689593 0.026016993 0.010627567
000120 fc b1 6d bc 57 c8 09 3d df 53 31 bd 85 db c9 bc
       -0.014507767 0.033638325 -0.043292876 -0.024640808
000130 20 1f f7 bc 59 9a 06 bd a8 d4 f9 bc 00 77 1f bc
       -0.030166209 -0.03286204 -0.03049691 -0.009732962
000140 2b 4d 44 bd 29 47 32 bd 89 dc 83 bd ff 9f b5 bc
       -0.047925156 -0.043524895 -0.06438548 -0.022171019
000150 44 61 8f 3b 53 9a f6 bc 1f 08 aa bd 6c d4 f0 3b
       0.0043756086 -0.030102884 -0.0830233 0.0073495414
000160 8c 7b 02 bd 57 99 1d 3c 5d 0f b4 bc 84 44 86 bd
       -0.031856105 0.009619079 -0.021979982 -0.06556037
000170 18 3e 69 bd f1 62 8c bd 62 b7 34 bd 0a 17 28 bd
       -0.056943983 -0.06854809 -0.0441202 -0.041037597

tfl.pseudo_qconst4 i1 [96, 24]
000000 14 48 e3 ca b6 e8 30 59 c9 bd 04 48 d3 e3 d6 41
       20 72 -29 -54 -74 -24 48 89 -55 -67 4 72 -45 -29 -42 65
000010 7f 58 bf fc a3 5a b5 0d 4d 4b 0c 96 ce 46 26 dd
       127 88 -65 -4 -93 90 -75 13 77 75 12 -106 -50 70 38 -35
000020 57 3a 64 81 0e 51 e1 5c 14 fe 52 f2 c3 6d 51 99
       87 58 100 -127 14 81 -31 92 20 -2 82 -14 -61 109 81 -103
000030 23 1b 63 6a c3 99 45 8a 3a 25 7f 17 45 ce 89 18
       35 27 99 106 -61 -103 69 -118 58 37 127 23 69 -50 -119 24
000040 2a dd e4 50 c2 9c 2a 15 f2 e3 11 09 55 84 a3 a8
       42 -35 -28 80 -62 -100 42 21 -14 -29 17 9 85 -124 -93 -88
000050 d6 ab b2 7f de 08 ff 10 b2 f0 db e2 7e e0 61 2d
       -42 -85 -78 127 -34 8 -1 16 -78 -16 -37 -30 126 -32 97 45
000060 81 3c 49 0e 0c af 52 4b d1 49 3c d3 40 18 0a 35
       -127 60 73 14 12 -81 82 75 -47 73 60 -45 64 24 10 53
000070 e2 26 39 3b 28 56 b6 59 14 6c e1 cc 35 bd 26 be
       -30 38 57 59 40 86 -74 89 20 108 -31 -52 53 -67 38 -66
000080 e8 cd 48 06 41 f7 a5 c3 57 f9 fc 92 8b 81 a5 29
       -24 -51 72 6 65 -9 -91 -61 87 -7 -4 -110 -117 -127 -91 41
000090 e1 4e 5c 7f 56 fb ee af 1d 9f c4 d2 0a f6 1d 03
       -31 78 92 127 86 -5 -18 -81 29 -97 -60 -46 10 -10 29 3
0000a0 13 b0 35 d4 5d 4e 4c 0d 5a 7f a5 10 c0 72 d5 d1
       19 -80 53 -44 93 78 76 13 90 127 -91 16 -64 114 -43 -47
0000b0 14 20 77 4e 21 24 e7 78 af 70 e0 43 13 f8 db 0d
       20 32 119 78 33 36 -25 120 -81 112 -32 67 19 -8 -37 13
0000c0 36 97 ea 11 dd 10 f1 d6 ad ae 7f 27 06 ad f7 5e
       54 -105 -22 17 -35 16 -15 -42 -83 -82 127 39 6 -83 -9 94
0000d0 ed bd 6f 6e b3 a1 ef 4f 01 c5 42 23 8e 43 f1 5d
       -19 -67 111 110 -77 -95 -17 79 1 -59 66 35 -114 67 -15 93
0000e0 4b f2 ab 37 4c fe bb 50 aa 40 a2 c5 7f 9c 5c 5e
       75 -14 -85 55 76 -2 -69 80 -86 64 -94 -59 127 -100 92 94
0000f0 bc b7 35 05 ee 87 e5 0f 81 06 1f f6 ea 41 30 0b
       -68 -73 53 5 -18 -121 -27 15 -127 6 31 -10 -22 65 48 11

tfl.pseudo_qconst5 i1 [96, 24]
000000 4a 03 11 c7 15 e7 e4 47 cd 08 1c 21 81 b4 f0 5a
       74 3 17 -57 21 -25 -28 71 -51 8 28 33 -127 -76 -16 90
000010 11 eb 69 0b f4 e8 ed fe a6 93 c4 49 b0 42 42 dd
       17 -21 105 11 -12 -24 -19 -2 -90 -109 -60 73 -80 66 66 -35
000020 e4 81 79 45 1a 87 1e 0c 29 0b ab b6 cc 12 1f 2c
       -28 -127 121 69 26 -121 30 12 41 11 -85 -74 -52 18 31 44
000030 fb 81 f2 ac 5f 01 28 09 07 ba 50 0f f7 08 4e c5
       -5 -127 -14 -84 95 1 40 9 7 -70 80 15 -9 8 78 -59
000040 08 21 cf 9c b7 c3 05 ca e8 06 04 c6 02 ce 2b c6
       8 33 -49 -100 -73 -61 5 -54 -24 6 4 -58 2 -50 43 -58
000050 db 2d 7f 0e ba 05 1e f5 20 24 36 e9 c4 c1 13 fc
       -37 45 127 14 -70 5 30 -11 32 36 54 -23 -60 -63 19 -4
000060 e4 0e 07 0d 19 cd 27 e1 ef c2 10 fc 24 0e 29 0e
       -28 14 7 13 25 -51 39 -31 -17 -62 16 -4 36 14 41 14
000070 7b 2f c9 7f 33 b1 f1 f7 0e 28 a4 41 f2 c5 08 06
       123 47 -55 127 51 -79 -15 -9 14 40 -92 65 -14 -59 8 6
000080 05 54 e0 fe 39 c2 bc c8 f2 0d 4e be 38 81 2f 61
       5 84 -32 -2 57 -62 -68 -56 -14 13 78 -66 56 -127 47 97
000090 ef 36 ca 2a f4 1f 37 49 af f4 cb e4 81 e6 01 df
       -17 54 -54 42 -12 31 55 73 -81 -12 -53 -28 -127 -26 1 -33
0000a0 d3 0a f0 18 fd d0 bc 05 ec 62 19 3f eb 2b 19 c9
       -45 10 -16 24 -3 -48 -68 5 -20 98 25 63 -21 43 25 -55
0000b0 76 14 e4 d6 30 c5 c1 f0 3b 51 7f 28 06 e2 06 d2
       118 20 -28 -42 48 -59 -63 -16 59 81 127 40 6 -30 6 -46
0000c0 17 22 15 1a fa 12 ff 10 c3 19 17 1a bf 01 2b d1
       23 34 21 26 -6 18 -1 16 -61 25 23 26 -65 1 43 -47
0000d0 12 fa d1 fa f5 e8 7f 10 12 42 06 1f 27 09 03 81
       18 -6 -47 -6 -11 -24 127 16 18 66 6 31 39 9 3 -127
0000e0 29 21 10 19 bf 42 e0 fa 19 0c df 15 ff 04 27 2d
       41 33 16 25 -65 66 -32 -6 25 12 -33 21 -1 4 39 45
0000f0 c0 22 29 d8 cf 03 25 15 b0 49 f7 06 cc 9e bd bc
       -64 34 41 -40 -49 3 37 21 -80 73 -9 6 -52 -98 -67 -68
