models/news_sentiment_model.tflite (tflite, 279696 bytes, 11 tensors)

arith.constant10 f4 [24]
0	0x3c771c83	0.015082481
1	0x3d03233c	0.032016024
2	0xbd2a6462	-0.04159964
3	0xbd0c8428	-0.03430572
4	0x3cc41b26	0.023938727
5	0xbc9b8232	-0.01898298
6	0x3d40c4d5	0.047062714
7	0xbd87f1ab	-0.066378914
8	0xbc80d57f	-0.015726803
9	0x3cfa7cba	0.030577052
10	0x3cfac396	0.03061084
11	0x3cea4dff	0.028601645
12	0xba27aef4	-0.00063966145
13	0xbd45c30f	-0.048281725
14	0xbc0aa521	-0.008462221
15	0x3c5fd22a	0.013660947
16	0xbca838b8	-0.020534858
17	0x3cb9e03c	0.022689931
18	0x3c0218ec	0.007940512
19	0xbc0e27d8	-0.008676492
20	0x3d3ce283	0.046114456
21	0x3d92a6f8	0.07160753
22	0x3c4a3cdf	0.012343614
23	0x3d502905	0.05082037

arith.constant11 f4 [3]
0	0xbd3b74ab	-0.04576556
1	0x3e1ae25c	0.15125412
2	0xbd8ad134	-0.067781836

arith.constant15 f4 [3, 24]
0	0xbea5099b	-0.3223389
1	0xbf2b4f35	-0.66917735
2	0xbdbf041a	-0.09326954
3	0x3ee37199	0.44422606
4	0x3e87767f	0.26457593
5	0xbd37f45b	-0.04491077
6	0xbcc06fdf	-0.023490844
7	0xbe739920	-0.23788881
8	0x3e54eb9d	0.20793004
9	0x3ec9c601	0.39408877
10	0x3d56b676	0.052420102
11	0x3e5ca2c9	0.21546473
12	0xbdcbfb81	-0.0996008
13	0x3f1ab693	0.60434836
14	0x3eedb647	0.4642813
15	0x3e7fe08b	0.24988
16	0x3efb68d0	0.49103403
17	0x3eba4283	0.3637887
18	0xbf133fcd	-0.5751923
19	0x3ed9e373	0.42556342
20	0xbe5c8a45	-0.2153712
21	0xbf2d0bff	-0.6759643
22	0xbdce50e0	-0.100740194
23	0xbecfe960	-0.40607738
24	0xbf0c80cc	-0.5488403
25	0x3f30dc35	0.6908601
26	0x3e158d61	0.14604713
27	0x3d323be7	0.04351416
28	0xbe8b8ec6	-0.27257365
29	0xbf0fe62f	-0.5621061
30	0x3f1c4b59	0.6105247
31	0xbde1c163	-0.11023214
32	0xbf0aad22	-0.5417043
33	0x3ec032ab	0.37538657
34	0xbf28ed8f	-0.65987486
35	0xbede3643	-0.43400773
36	0x3f0d3e81	0.551735
37	0xbe246f50	-0.16058087
38	0xbf00d1a6	-0.503199
39	0xbecc4342	-0.39895064
40	0xbe1226ee	-0.14272663
41	0xbf3c9296	-0.7366117
42	0x3eabb2b4	0.33534777
43	0xbd4ff40b	-0.050769847
44	0xbefdf1e9	-0.49598625
45	0x3e02c183	0.12769131
46	0x3f05fc80	0.5233841
47	0x3ee1eac3	0.4412442
48	0x3e95543b	0.29165825
49	0x3f02e6a7	0.511332
50	0x3f22e53d	0.6363104
51	0xbf0a2c2b	-0.53973645
52	0xbeb96b49	-0.36214665
53	0x3eb9dd6c	0.36301744
54	0xbe85329d	-0.26015177
55	0x3f14e228	0.5815759
56	0xbe905535	-0.28190008
57	0xbf0f2b11	-0.5592509
58	0x3ea83c8a	0.32858688
59	0x3f03b1f9	0.5144344
60	0xbf3b87a6	-0.7325386
61	0xbf105af9	-0.56388813
62	0x3ec9b171	0.3939319
63	0xbe3548cd	-0.17703553
64	0x3d3fa216	0.046785437
65	0x3ea2311a	0.31678087
66	0xbf437658	-0.76352453
67	0xbe7d121e	-0.24713942
68	0x3dc0197a	0.09379859
69	0x3e540a1b	0.2070698
70	0xbf2e72c0	-0.68143845
71	0xbee717e8	-0.45135427

tfl.pseudo_qconst i1 [24, 48]
0	0xda	-38
1	0xce	-50
2	0x4e	78
3	0xea	-22
4	0x1d	29
5	0xc4	-60
6	0xb2	-78
7	0x35	53
8	0xc2	-62
9	0x2c	44
10	0xc3	-61
11	0xdf	-33
12	0xbc	-68
13	0xbe	-66
14	0x19	25
15	0x37	55
16	0xb6	-74
17	0xe9	-23
18	0x09	9
19	0x29	41
20	0x06	6
21	0x28	40
22	0x1f	31
23	0x06	6
24	0xd6	-42
25	0xee	-18
26	0x38	56
27	0xd1	-47
28	0x64	100
29	0xef	-17
30	0x13	19
31	0x0a	10
32	0xec	-20
33	0xba	-70
34	0x36	54
35	0xd5	-43
36	0x68	104
37	0x01	1
38	0xd2	-46
39	0x19	25
40	0xe1	-31
41	0xca	-54
42	0xc6	-58
43	0x00	0
44	0x84	-124
45	0x4c	76
46	0x81	-127
47	0x30	48
48	0xd1	-47
49	0xde	-34
50	0x0f	15
51	0x17	23
52	0xcb	-53
53	0xe9	-23
54	0xea	-22
55	0x14	20
56	0x25	37
57	0xe1	-31
58	0x0f	15
59	0xf5	-11
60	0xec	-20
61	0x0c	12
62	0xfc	-4
63	0x02	2
64	0xea	-22
65	0xe7	-25
66	0xcf	-49
67	0xc6	-58
68	0x01	1
69	0x02	2
70	0xe0	-32
71	0x0f	15
72	0x56	86
73	0x37	55
74	0x62	98
75	0xb2	-78
76	0xd4	-44
77	0x92	-110
78	0xf2	-14
79	0x2e	46
80	0x2b	43
81	0xd8	-40
82	0xf1	-15
83	0x05	5
84	0xec	-20
85	0xca	-54
86	0x1b	27
87	0xf2	-14
88	0x60	96
89	0xbe	-66
90	0xeb	-21
91	0xa4	-92
92	0x30	48
93	0x72	114
94	0xd9	-39
95	0x7f	127
96	0xed	-19
97	0x35	53
98	0xdf	-33
99	0xd0	-48
100	0xd8	-40
101	0x3d	61
102	0x1a	26
103	0x02	2
104	0x22	34
105	0xea	-22
106	0x33	51
107	0x0c	12
108	0x24	36
109	0xe0	-32
110	0xea	-22
111	0xe9	-23
112	0x30	48
113	0xf4	-12
114	0xd6	-42
115	0x15	21
116	0x11	17
117	0x12	18
118	0x20	32
119	0x16	22
120	0x30	48
121	0x38	56
122	0x27	39
123	0xb9	-71
124	0x32	50
125	0x83	-125
126	0x16	22
127	0x26	38
128	0x68	104
129	0xa0	-96
130	0xd5	-43
131	0x0e	14
132	0x1c	28
133	0xe6	-26
134	0xbc	-68
135	0x13	19
136	0x14	20
137	0xb3	-77
138	0xdc	-36
139	0x81	-127
140	0xdc	-36
141	0x4c	76
142	0x95	-107
143	0x7c	124
144	0x1a	26
145	0x2d	45
146	0xbb	-69
147	0xed	-19
148	0xf9	-7
149	0x1f	31
150	0x0d	13
151	0x02	2
152	0xfb	-5
153	0x00	0
154	0x2e	46
155	0x16	22
156	0xe1	-31
157	0xe0	-32
158	0xd9	-39
159	0xe7	-25
160	0xcd	-51
161	0x0a	10
162	0x2e	46
163	0xf1	-15
164	0x20	32
165	0x12	18
166	0xfb	-5
167	0x0a	10
168	0x90	-112
169	0xf9	-7
170	0xb1	-79
171	0x4f	79
172	0xb3	-77
173	0x08	8
174	0xf7	-9
175	0xb8	-72
176	0x22	34
177	0x54	84
178	0x15	21
179	0x45	69
180	0xab	-85
181	0x7f	127
182	0x4f	79
183	0x32	50
184	0x39	57
185	0x43	67
186	0x68	104
187	0x26	38
188	0x13	19
189	0x8e	-114
190	0x62	98
191	0x0d	13
192	0x19	25
193	0xf2	-14
194	0x12	18
195	0xb6	-74
196	0x26	38
197	0x02	2
198	0xf1	-15
199	0xe8	-24
200	0xf8	-8
201	0x3a	58
202	0x35	53
203	0x3c	60
204	0xfa	-6
205	0x07	7
206	0xc3	-61
207	0x24	36
208	0xdd	-35
209	0xf8	-8
210	0x01	1
211	0x06	6
212	0x1b	27
213	0x29	41
214	0xd1	-47
215	0x2a	42
216	0xa6	-90
217	0xd5	-43
218	0xd1	-47
219	0x65	101
220	0x22	34
221	0x23	35
222	0xfc	-4
223	0x05	5
224	0xcb	-53
225	0xee	-18
226	0x39	57
227	0xdd	-35
228	0xbc	-68
229	0x56	86
230	0x23	35
231	0xb3	-77
232	0xab	-85
233	0x31	49
234	0x7f	127
235	0xfa	-6
236	0xc5	-59
237	0xef	-17
238	0x79	121
239	0xbd	-67
240	0xc4	-60
241	0xf1	-15
242	0xed	-19
243	0xc3	-61
244	0x09	9
245	0x4d	77
246	0x25	37
247	0x0f	15
248	0xb9	-71
249	0xf6	-10
250	0x0d	13
251	0xe5	-27
252	0xcf	-49
253	0xf8	-8
254	0x12	18
255	0x36	54

tfl.pseudo_qconst1 i1 [10000, 24] scale=0.0028132596 zero_point=0
0	0xfc	-0.011253038
1	0x1a	0.07314475
2	0x0a	0.028132595
3	0x0b	0.030945856
4	0xf5	-0.030945856
5	0xf8	-0.022506077
6	0x0e	0.039385635
7	0xee	-0.050638672
8	0x0b	0.030945856
9	0x0e	0.039385635
10	0xeb	-0.05907845
11	0xf2	-0.039385635
12	0x13	0.053451933
13	0xec	-0.05626519
14	0xf6	-0.028132595
15	0x07	0.019692818
16	0x00	0.0
17	0x06	0.016879559
18	0xff	-0.0028132596
19	0x11	0.047825415
20	0x04	0.011253038
21	0x15	0.05907845
22	0xfc	-0.011253038
23	0x07	0.019692818
24	0x04	0.011253038
25	0x00	0.0
26	0x0e	0.039385635
27	0x0a	0.028132595
28	0x10	0.045012154
29	0xfe	-0.005626519
30	0xfc	-0.011253038
31	0x10	0.045012154
32	0xef	-0.047825415
33	0xff	-0.0028132596
34	0xf1	-0.042198893
35	0x07	0.019692818
36	0xef	-0.047825415
37	0x01	0.0028132596
38	0xf0	-0.045012154
39	0xfb	-0.014066298
40	0xfc	-0.011253038
41	0xf4	-0.033759117
42	0xfd	-0.008439779
43	0x0d	0.036572374
44	0x02	0.005626519
45	0xfe	-0.005626519
46	0x05	0.014066298
47	0xf6	-0.028132595
48	0x0d	0.036572374
49	0x0a	0.028132595
50	0xf3	-0.036572374
51	0x13	0.053451933
52	0xf2	-0.039385635
53	0xe6	-0.07314475
54	0x01	0.0028132596
55	0x1b	0.075958006
56	0xed	-0.053451933
57	0xeb	-0.05907845
58	0x04	0.011253038
59	0x02	0.005626519
60	0xf3	-0.036572374
61	0x30	0.13503647
62	0x02	0.005626519
63	0x00	0.0
64	0x04	0.011253038
65	0x07	0.019692818
66	0x00	0.0
67	0xf9	-0.019692818
68	0xfa	-0.016879559
69	0x03	0.008439779
70	0x12	0.050638672
71	0xf4	-0.033759117
72	0x0b	0.030945856
73	0xeb	-0.05907845
74	0xf2	-0.039385635
75	0x05	0.014066298
76	0xe7	-0.07033149
77	0xf9	-0.019692818
78	0x16	0.061891712
79	0xf5	-0.030945856
80	0x00	0.0
81	0xe9	-0.06470497
82	0xfe	-0.005626519
83	0x0e	0.039385635
84	0x12	0.050638672
85	0x09	0.025319336
86	0xf9	-0.019692818
87	0x0b	0.030945856
88	0xe5	-0.075958006
89	0x12	0.050638672
90	0x12	0.050638672
91	0xfa	-0.016879559
92	0xf7	-0.025319336
93	0xfd	-0.008439779
94	0x04	0.011253038
95	0x17	0.06470497
96	0x10	0.045012154
97	0x02	0.005626519
98	0xfc	-0.011253038
99	0xf1	-0.042198893
100	0xff	-0.0028132596
101	0xe3	-0.08158453
102	0xf5	-0.030945856
103	0xff	-0.0028132596
104	0x0f	0.042198893
105	0xe2	-0.084397785
106	0x16	0.061891712
107	0x0e	0.039385635
108	0xef	-0.047825415
109	0x19	0.07033149
110	0xe8	-0.067518234
111	0x00	0.0
112	0x05	0.014066298
113	0x05	0.014066298
114	0xf7	-0.025319336
115	0xeb	-0.05907845
116	0xe0	-0.09002431
117	0xf3	-0.036572374
118	0xf2	-0.039385635
119	0xf5	-0.030945856
120	0x16	0.061891712
121	0x0d	0.036572374
122	0xf6	-0.028132595
123	0x18	0.067518234
124	0xf7	-0.025319336
125	0xfc	-0.011253038
126	0x03	0.008439779
127	0xed	-0.053451933
128	0x00	0.0
129	0xf0	-0.045012154
130	0xf9	-0.019692818
131	0x0c	0.033759117
132	0x11	0.047825415
133	0x0a	0.028132595
134	0x17	0.06470497
135	0x14	0.05626519
136	0xee	-0.050638672
137	0x05	0.014066298
138	0xfb	-0.014066298
139	0xea	-0.061891712
140	0xf3	-0.036572374
141	0xf1	-0.042198893
142	0xfc	-0.011253038
143	0xf0	-0.045012154
144	0x0e	0.039385635
145	0xff	-0.0028132596
146	0xfb	-0.014066298
147	0x04	0.011253038
148	0x07	0.019692818
149	0xeb	-0.05907845
150	0x26	0.106903866
151	0xeb	-0.05907845
152	0xe5	-0.075958006
153	0xeb	-0.05907845
154	0x08	0.022506077
155	0x00	0.0
156	0x01	0.0028132596
157	0xfb	-0.014066298
158	0xf3	-0.036572374
159	0x19	0.07033149
160	0xfa	-0.016879559
161	0x06	0.016879559
162	0x0c	0.033759117
163	0xe7	-0.07033149
164	0xf2	-0.039385635
165	0xe9	-0.06470497
166	0x01	0.0028132596
167	0xe6	-0.07314475
168	0x17	0.06470497
169	0x06	0.016879559
170	0xfd	-0.008439779
171	0x01	0.0028132596
172	0x09	0.025319336
173	0xfb	-0.014066298
174	0x20	0.09002431
175	0xf7	-0.025319336
176	0xf9	-0.019692818
177	0xf7	-0.025319336
178	0xfe	-0.005626519
179	0x05	0.014066298
180	0x0d	0.036572374
181	0x16	0.061891712
182	0x0d	0.036572374
183	0x04	0.011253038
184	0x01	0.0028132596
185	0x07	0.019692818
186	0xf6	-0.028132595
187	0xef	-0.047825415
188	0x09	0.025319336
189	0x02	0.005626519
190	0xf1	-0.042198893
191	0xe6	-0.07314475
192	0x04	0.011253038
193	0xfa	-0.016879559
194	0xe6	-0.07314475
195	0xfc	-0.011253038
196	0x0c	0.033759117
197	0x00	0.0
198	0x0c	0.033759117
199	0xfa	-0.016879559
200	0xee	-0.050638672
201	0x08	0.022506077
202	0x0b	0.030945856
203	0xfc	-0.011253038
204	0x11	0.047825415
205	0x01	0.0028132596
206	0xec	-0.05626519
207	0x13	0.053451933
208	0xf8	-0.022506077
209	0x15	0.05907845
210	0x11	0.047825415
211	0x00	0.0
212	0x15	0.05907845
213	0x04	0.011253038
214	0x03	0.008439779
215	0x06	0.016879559
216	0x16	0.061891712
217	0xf1	-0.042198893
218	0xef	-0.047825415
219	0x0e	0.039385635
220	0x13	0.053451933
221	0x01	0.0028132596
222	0x02	0.005626519
223	0x0d	0.036572374
224	0xf6	-0.028132595
225	0x0e	0.039385635
226	0x04	0.011253038
227	0x04	0.011253038
228	0x09	0.025319336
229	0x08	0.022506077
230	0xf9	-0.019692818
231	0x1d	0.08158453
232	0xf5	-0.030945856
233	0x13	0.053451933
234	0x0c	0.033759117
235	0xfa	-0.016879559
236	0x0e	0.039385635
237	0xee	-0.050638672
238	0xfa	-0.016879559
239	0x08	0.022506077
240	0x14	0.05626519
241	0xf6	-0.028132595
242	0xe3	-0.08158453
243	0xff	-0.0028132596
244	0x1b	0.075958006
245	0x21	0.092837565
246	0x05	0.014066298
247	0x0e	0.039385635
248	0x19	0.07033149
249	0x11	0.047825415
250	0x1c	0.07877127
251	0x17	0.06470497
252	0x0b	0.030945856
253	0x02	0.005626519
254	0xe7	-0.07033149
255	0x08	0.022506077

arith.constant19 f4 [96]
0	0x3e133447	0.14375411
1	0x3d9035d1	0.07041515
2	0x3e15ed97	0.14641415
3	0x3e3aca57	0.18241249
4	0x3e151a89	0.14560904
5	0x3dde3c52	0.10851349
6	0x3e2b8ffe	0.16754147
7	0x3ebe3f04	0.37157452
8	0x3dc00ff3	0.09378042
9	0x3e3b32ab	0.18281047
10	0x3e051aee	0.12998554
11	0x3dd7ac22	0.105308786
12	0x3e408f4d	0.18804665
13	0x3e4c4158	0.19946802
14	0x3e68be0e	0.2272875
15	0x3e93e488	0.28885293
16	0x3e1db7a8	0.1540209
17	0x3d9ab79f	0.07554554
18	0x3dc99754	0.09843317
19	0x3e00ef59	0.12591304
20	0x3e471026	0.19439754
21	0x3de3c1e4	0.11120966
22	0x3e2ffb21	0.17185642
23	0x3d40c5ee	0.04706376
24	0x3f862b97	1.0482053
25	0x3f89f519	1.0777923
26	0x3f851955	1.0398356
27	0x3f82aa63	1.0208248
28	0x3f8a4a1f	1.080387
29	0x3f81ef40	1.0151138
30	0x3f8a9dd5	1.0829417
31	0x3f8e19fa	1.1101677
32	0x3f80e7ec	1.0070777
33	0x3f82ef98	1.0229368
34	0x3f883e2c	1.0643973
35	0x3f878e8a	1.0590374
36	0x3f8a261e	1.0792882
37	0x3f89c52d	1.0763298
38	0x3f8dfe7d	1.1093289
39	0x3f92dfe4	1.1474576
40	0x3f87e30a	1.0616162
41	0x3f80e98a	1.007127
42	0x3f833412	1.0250266
43	0x3f82cb0f	1.0218219
44	0x3f88055b	1.0626634
45	0x3f86d18e	1.0532701
46	0x3f85325e	1.0405996
47	0x3f7f614c	0.9975784
48	0x3d0b57ab	0.034019154
49	0x3c74033e	0.014893351
50	0x3c9615fc	0.01832103
51	0x3b6d94c2	0.0036251997
52	0x3c8f699c	0.017506413
53	0xbc4bf4db	-0.012448515
54	0x3ce7c06a	0.028289992
55	0xbc13b070	-0.009014234
56	0xbb815591	-0.003946968
57	0x3c0d1429	0.008610764
58	0x3c173901	0.009229899
59	0xbbc1b3db	-0.005911333
60	0xbbbbce0f	-0.005731351
61	0xbcfe73c9	-0.03106107
62	0xbb430294	-0.0029756175
63	0xbbfd4a35	-0.0077297934
64	0xbabed436	-0.0014559093
65	0xba834965	-0.001001638
66	0xbd180c35	-0.037121017
67	0xbbae6d5f	-0.0053230966
68	0xbcfedb75	-0.031110505
69	0x3bc39c74	0.0059695784
70	0x3c957b5d	0.0182473
71	0x3bd40efe	0.006471514
72	0x3e1bcf8b	0.1521589
73	0x3d94188b	0.07231244
74	0x3e2482a2	0.16065457
75	0x3e56d126	0.20978221
76	0x3e0b09ea	0.13578
77	0x3df535cd	0.11973152
78	0x3e3228f4	0.17398435
79	0x3ed13a0a	0.40864593
80	0x3dc02b5c	0.0938327
81	0x3e476c3f	0.19474886
82	0x3e084251	0.13306548
83	0x3dd33fa9	0.103148766
84	0x3e4d73bf	0.20063685
85	0x3e4dde32	0.20104292
86	0x3e778024	0.24169976
87	0x3ea1a215	0.3156897
88	0x3e2d0081	0.16894723
89	0x3db1aa53	0.08675065
90	0x3dd50ff3	0.10403433
91	0x3e14e1d5	0.14539273
92	0x3e556a68	0.20841372
93	0x3e029a45	0.12754162
94	0x3e4c694b	0.19962041
95	0x3d83a04b	0.06427058

tfl.pseudo_qconst2 i1 [96, 24]
0	0x18	24
1	0x28	40
2	0xb7	-73
3	0x59	89
4	0x57	87
5	0xe7	-25
6	0x60	96
7	0xe8	-24
8	0xaf	-81
9	0xec	-20
10	0x29	41
11	0xfc	-4
12	0x24	36
13	0x4a	74
14	0xbb	-69
15	0xee	-18
16	0xb5	-75
17	0xf5	-11
18	0xc6	-58
19	0x10	16
20	0xbf	-65
21	0x16	22
22	0x59	89
23	0x81	-127
24	0x0a	10
25	0xd9	-39
26	0xdf	-33
27	0xe7	-25
28	0x7f	127
29	0x3c	60
30	0xfb	-5
31	0xc5	-59
32	0xdf	-33
33	0xc4	-60
34	0x2a	42
35	0x32	50
36	0x0e	14
37	0xc6	-58
38	0xcb	-53
39	0x02	2
40	0xe3	-29
41	0xd5	-43
42	0x98	-104
43	0x1e	30
44	0xf2	-14
45	0xef	-17
46	0x04	4
47	0x1d	29
48	0xf9	-7
49	0x10	16
50	0x34	52
51	0xc8	-56
52	0x7f	127
53	0xd1	-47
54	0xff	-1
55	0x1d	29
56	0xda	-38
57	0xc4	-60
58	0x1d	29
59	0x58	88
60	0x05	5
61	0x52	82
62	0x1e	30
63	0xdb	-37
64	0xfd	-3
65	0xcf	-49
66	0xdf	-33
67	0xd8	-40
68	0x11	17
69	0xfa	-6
70	0x33	51
71	0x09	9
72	0x15	21
73	0x19	25
74	0x87	-121
75	0x97	-105
76	0xd8	-40
77	0x4a	74
78	0xc0	-64
79	0x4b	75
80	0xf1	-15
81	0xa7	-89
82	0x61	97
83	0x81	-127
84	0xaf	-81
85	0x02	2
86	0xf6	-10
87	0xcc	-52
88	0x4f	79
89	0x1d	29
90	0x36	54
91	0x34	52
92	0x9f	-97
93	0x17	23
94	0xb0	-80
95	0xd7	-41
96	0xf0	-16
97	0xb7	-73
98	0xa0	-96
99	0x9a	-102
100	0x5b	91
101	0x0e	14
102	0x81	-127
103	0xeb	-21
104	0xdb	-37
105	0xef	-17
106	0xbd	-67
107	0xd4	-44
108	0xb0	-80
109	0xce	-50
110	0xe4	-28
111	0x33	51
112	0x4f	79
113	0xc9	-55
114	0xad	-83
115	0x01	1
116	0xa2	-94
117	0x61	97
118	0xd3	-45
119	0x3f	63
120	0x7f	127
121	0x15	21
122	0x99	-103
123	0xf5	-11
124	0x0b	11
125	0x39	57
126	0x28	40
127	0x04	4
128	0xd7	-41
129	0xe6	-26
130	0x60	96
131	0x49	73
132	0xbc	-68
133	0x08	8
134	0xb2	-78
135	0xcb	-53
136	0xf1	-15
137	0xef	-17
138	0xd1	-47
139	0xb2	-78
140	0x05	5
141	0xd6	-42
142	0x02	2
143	0xae	-82
144	0xd3	-45
145	0xdf	-33
146	0xb3	-77
147	0xb0	-80
148	0xfb	-5
149	0x26	38
150	0x82	-126
151	0x18	24
152	0xcd	-51
153	0xa3	-93
154	0x7f	127
155	0xc0	-64
156	0xcb	-53
157	0x72	114
158	0xaf	-81
159	0x89	-119
160	0x64	100
161	0x19	25
162	0x6c	108
163	0xcf	-49
164	0xf6	-10
165	0xbf	-65
166	0xb2	-78
167	0x02	2
168	0xf6	-10
169	0x03	3
170	0xd1	-47
171	0xdb	-37
172	0x54	84
173	0x09	9
174	0x0e	14
175	0x02	2
176	0xb6	-74
177	0xe8	-24
178	0xdf	-33
179	0x61	97
180	0x04	4
181	0x7f	127
182	0x13	19
183	0x1a	26
184	0xc1	-63
185	0xf6	-10
186	0xb2	-78
187	0xa2	-94
188	0x26	38
189	0x02	2
190	0x67	103
191	0x02	2
192	0x81	-127
193	0xeb	-21
194	0xcb	-53
195	0x8d	-115
196	0x1d	29
197	0x53	83
198	0xe5	-27
199	0xed	-19
200	0xe4	-28
201	0xeb	-21
202	0x46	70
203	0xb8	-72
204	0x13	19
205	0xcb	-53
206	0x13	19
207	0xde	-34
208	0xe8	-24
209	0xff	-1
210	0x36	54
211	0x39	57
212	0x31	49
213	0x18	24
214	0xe9	-23
215	0x24	36
216	0xc2	-62
217	0x4f	79
218	0x23	35
219	0xd2	-46
220	0x10	16
221	0xf9	-7
222	0xa1	-95
223	0x5a	90
224	0xc9	-55
225	0xa1	-95
226	0x0e	14
227	0xd9	-39
228	0xcf	-49
229	0x32	50
230	0x11	17
231	0x81	-127
232	0x34	52
233	0xfd	-3
234	0xe1	-31
235	0xcd	-51
236	0xcd	-51
237	0xe9	-23
238	0xd1	-47
239	0xd3	-45
240	0x39	57
241	0xec	-20
242	0xb3	-77
243	0x81	-127
244	0x19	25
245	0x71	113
246	0xa4	-92
247	0x5c	92
248	0xbf	-65
249	0x95	-107
250	0x95	-107
251	0xd8	-40
252	0xd7	-41
253	0x9b	-101
254	0x8d	-115
255	0x4e	78

tfl.pseudo_qconst3 i1 [96, 24]
0	0xdc	-36
1	0x01	1
2	0xcd	-51
3	0xac	-84
4	0x1c	28
5	0x3b	59
6	0xff	-1
7	0xae	-82
8	0x7f	127
9	0xff	-1
10	0xc6	-58
11	0x97	-105
12	0x2a	42
13	0x64	100
14	0x31	49
15	0xa1	-95
16	0x90	-112
17	0x42	66
18	0x0c	12
19	0x5b	91
20	0xf6	-10
21	0x86	-122
22	0x5a	90
23	0xa3	-93
24	0x6b	107
25	0xda	-38
26	0x62	98
27	0xe1	-31
28	0xae	-82
29	0x1c	28
30	0x1d	29
31	0x52	82
32	0xe6	-26
33	0xff	-1
34	0xd7	-41
35	0x20	32
36	0x00	0
37	0xdb	-37
38	0xe0	-32
39	0x2c	44
40	0x66	102
41	0xeb	-21
42	0x01	1
43	0xd1	-47
44	0x63	99
45	0xf1	-15
46	0x7f	127
47	0x06	6
48	0xa5	-91
49	0x9d	-99
50	0x0a	10
51	0x59	89
52	0xef	-17
53	0xdf	-33
54	0x61	97
55	0x29	41
56	0xdb	-37
57	0x27	39
58	0xb7	-73
59	0xa2	-94
60	0xb6	-74
61	0x57	87
62	0x7f	127
63	0x2f	47
64	0xe7	-25
65	0x2e	46
66	0x03	3
67	0x30	48
68	0xba	-70
69	0x84	-124
70	0xfa	-6
71	0xb8	-72
72	0xf8	-8
73	0xe6	-26
74	0x02	2
75	0xb4	-76
76	0x4e	78
77	0x3a	58
78	0x58	88
79	0xa7	-89
80	0x18	24
81	0x8c	-116
82	0x52	82
83	0xb1	-79
84	0x57	87
85	0xf9	-7
86	0xe0	-32
87	0xc4	-60
88	0xa1	-95
89	0x2b	43
90	0x52	82
91	0x2e	46
92	0x81	-127
93	0x36	54
94	0x13	19
95	0x03	3
96	0xea	-22
97	0xd8	-40
98	0xfa	-6
99	0x81	-127
100	0xfb	-5
101	0xfb	-5
102	0x33	51
103	0xd9	-39
104	0x7f	127
105	0xe0	-32
106	0x31	49
107	0x19	25
108	0x17	23
109	0x17	23
110	0xb6	-74
111	0xfe	-2
112	0xfe	-2
113	0x18	24
114	0x04	4
115	0xf6	-10
116	0x38	56
117	0xea	-22
118	0xd0	-48
119	0x0a	10
120	0xc5	-59
121	0x05	5
122	0xef	-17
123	0xcd	-51
124	0xfb	-5
125	0xe4	-28
126	0x2b	43
127	0xf8	-8
128	0x11	17
129	0xd4	-44
130	0xee	-18
131	0x81	-127
132	0x04	4
133	0x3a	58
134	0x06	6
135	0xfb	-5
136	0xf0	-16
137	0x0e	14
138	0x43	67
139	0x2f	47
140	0x0f	15
141	0xf3	-13
142	0x22	34
143	0xfc	-4
144	0xb7	-73
145	0xbd	-67
146	0x0a	10
147	0xb3	-77
148	0x16	22
149	0x22	34
150	0x78	120
151	0xf3	-13
152	0x2b	43
153	0xff	-1
154	0x35	53
155	0x0a	10
156	0x7f	127
157	0x27	39
158	0x25	37
159	0xb9	-71
160	0x28	40
161	0x05	5
162	0x12	18
163	0x17	23
164	0xbc	-68
165	0xf3	-13
166	0x37	55
167	0xf2	-14
168	0xe4	-28
169	0xbf	-65
170	0xf6	-10
171	0x17	23
172	0x9d	-99
173	0x10	16
174	0xf8	-8
175	0x14	20
176	0xd3	-45
177	0x2d	45
178	0x31	49
179	0xd2	-46
180	0xb6	-74
181	0x40	64
182	0x7f	127
183	0xfe	-2
184	0x08	8
185	0x5c	92
186	0x2c	44
187	0x0c	12
188	0x31	49
189	0xb7	-73
190	0x61	97
191	0xb4	-76
192	0x41	65
193	0x21	33
194	0x00	0
195	0xd6	-42
196	0x7f	127
197	0xbc	-68
198	0x2b	43
199	0x71	113
200	0x55	85
201	0x1c	28
202	0xec	-20
203	0x91	-111
204	0x3a	58
205	0x2a	42
206	0xae	-82
207	0x28	40
208	0xfc	-4
209	0x1b	27
210	0xf2	-14
211	0xab	-85
212	0x36	54
213	0x52	82
214	0x10	16
215	0xd9	-39
216	0xeb	-21
217	0x15	21
218	0x3a	58
219	0x93	-109
220	0x3f	63
221	0x16	22
222	0x7f	127
223	0xbf	-65
224	0x29	41
225	0xd7	-41
226	0x41	65
227	0xb1	-79
228	0x5b	91
229	0xeb	-21
230	0x10	16
231	0xaa	-86
232	0xf1	-15
233	0x41	65
234	0x0d	13
235	0x24	36
236	0x94	-108
237	0xe5	-27
238	0xed	-19
239	0xbe	-66
240	0x26	38
241	0xf6	-10
242	0x3f	63
243	0xb6	-74
244	0xb5	-75
245	0x23	35
246	0x52	82
247	0x7f	127
248	0x6a	106
249	0x3b	59
250	0xad	-83
251	0x27	39
252	0xc8	-56
253	0x67	103
254	0xfb	-5
255	0x35	53

arith.constant23 f4 [96]
0	0xbc95d738	-0.0182911
1	0xbdcf196b	-0.1011227
2	0xbccce960	-0.025013626
3	0xbd136577	-0.035985436
4	0xbcb7d6b5	-0.022441247
5	0x3d7916c2	0.06081272
6	0xbdac86a3	-0.084241174
7	0xbd4e648e	-0.050388865
8	0x3c8d4fd7	0.017249985
9	0xbd115700	-0.03548336
10	0x3cda2246	0.026627671
11	0xbca2bcc4	-0.019865401
12	0xbdb707e2	-0.089370504
13	0x3d1bea94	0.038065508
14	0x3a27299e	0.0006376746
15	0xbd49b9a1	-0.049249295
16	0xbd3ff0bd	-0.046860445
17	0xbb91a350	-0.004444517
18	0xbce2c9eb	-0.027684173
19	0xba3a7d41	-0.0007114001
20	0xbc0581e0	-0.00814864
21	0x3ba0e557	0.004910152
22	0x3cea13c9	0.028573887
23	0xbd1e8445	-0.03870036
24	0x3f7b444c	0.9815109
25	0x3f65db29	0.89787537
26	0x3f7981c3	0.97463626
27	0x3f7673be	0.9627036
28	0x3f79d0ea	0.975844
29	0x3f87a726	1.0597885
30	0x3f6b396d	0.918845
31	0x3f72ae39	0.9479709
32	0x3f81fe69	1.0155765
33	0x3f76fe3c	0.9648168
34	0x3f8376c6	1.0270622
35	0x3f7acc95	0.9796842
36	0x3f69c6e4	0.9131911
37	0x3f84951f	1.0358008
38	0x3f7fe915	0.9996503
39	0x3f73d887	0.9525227
40	0x3f74391f	0.9539966
41	0x3f7e530e	0.9934548
42	0x3f788740	0.97081375
43	0x3f7fb637	0.9988741
44	0x3f7daeaf	0.9909467
45	0x3f803971	1.001753
46	0x3f83b073	1.0288223
47	0x3f75da0e	0.9603585
48	0xbbd8d002	-0.0066165933
49	0xbc9416d7	-0.018077297
50	0xbb02c27d	-0.001995235
51	0x3cfb00d4	0.030640043
52	0x3c8bb0f8	0.017052159
53	0xbde22e21	-0.11043955
54	0x3b967cca	0.0045925127
55	0xbc3da8f6	-0.011575928
56	0x3b0f39d2	0.0021854532
57	0x3c89f552	0.01684061
58	0xbd27888a	-0.0409017
59	0xbbe13821	-0.006873146
60	0xbcaf968a	-0.021434087
61	0x3d4e2886	0.050331615
62	0x3ca82147	0.02052368
63	0xbc502351	-0.012703733
64	0xbbc698ac	-0.0060606804
65	0x3d3323b3	0.043735217
66	0x3d45f164	0.04832591
67	0x3c5dab61	0.013529629
68	0xbc0cdd20	-0.008597642
69	0xbd57c3c5	-0.052676935
70	0xbd88837f	-0.06665706
71	0x3cbac6c0	0.02279985
72	0xbc98932b	-0.018624863
73	0xbdd03af8	-0.101674974
74	0xbcd4fa56	-0.025998276
75	0xbd1b56cf	-0.037924584
76	0xbce5d251	-0.028054388
77	0x3d693207	0.056932475
78	0xbda9afd0	-0.08285487
79	0xbd53f12f	-0.051743682
80	0x3c856841	0.016285064
81	0xbd125736	-0.035727702
82	0x3cce02b8	0.02514778
83	0xbcbc1a9f	-0.022961913
84	0xbdb5c027	-0.08874541
85	0x3d0c408c	0.034241244
86	0xbb96e20a	-0.0046045827
87	0xbd4528fc	-0.04813479
88	0xbd3dcf04	-0.046340004
89	0xbbbfff1c	-0.005859269
90	0xbced2817	-0.02894978
91	0xbbf83019	-0.007574093
92	0xbc11a049	-0.008888313
93	0x3ae262b8	0.0017271852
94	0x3ce32706	0.027728569
95	0xbd2446f4	-0.04010673

tfl.pseudo_qconst4 i1 [96, 24]
0	0xe9	-23
1	0xbb	-69
2	0xe1	-31
3	0x01	1
4	0xfd	-3
5	0xb4	-76
6	0xe4	-28
7	0x12	18
8	0xc5	-59
9	0xcc	-52
10	0x10	16
11	0x41	65
12	0x99	-103
13	0x5b	91
14	0xfe	-2
15	0xa8	-88
16	0x0f	15
17	0x8c	-116
18	0x0f	15
19	0xd6	-42
20	0xf4	-12
21	0xcb	-53
22	0x7f	127
23	0xad	-83
24	0x33	51
25	0x1f	31
26	0xcc	-52
27	0x9b	-101
28	0x3b	59
29	0xf9	-7
30	0x9d	-99
31	0x3d	61
32	0x81	-127
33	0x34	52
34	0xf4	-12
35	0xd2	-46
36	0x27	39
37	0xe1	-31
38	0x4c	76
39	0x13	19
40	0xfd	-3
41	0x30	48
42	0x74	116
43	0x8f	-113
44	0xee	-18
45	0x83	-125
46	0xc8	-56
47	0x97	-105
48	0x29	41
49	0xff	-1
50	0xbc	-68
51	0xdb	-37
52	0xd7	-41
53	0xbc	-68
54	0x81	-127
55	0xcd	-51
56	0x4c	76
57	0xa5	-91
58	0x79	121
59	0x55	85
60	0x62	98
61	0xea	-22
62	0x2e	46
63	0x3a	58
64	0xfb	-5
65	0x2a	42
66	0x01	1
67	0xc4	-60
68	0x1a	26
69	0x12	18
70	0xf5	-11
71	0xa1	-95
72	0x7f	127
73	0xef	-17
74	0xe9	-23
75	0x3b	59
76	0x1b	27
77	0x7b	123
78	0x8d	-115
79	0x3b	59
80	0x1e	30
81	0x9a	-102
82	0xe6	-26
83	0x97	-105
84	0xec	-20
85	0xfd	-3
86	0x57	87
87	0xa2	-94
88	0xc5	-59
89	0xc4	-60
90	0xa1	-95
91	0x16	22
92	0x0b	11
93	0xbb	-69
94	0xda	-38
95	0xc8	-56
96	0x6c	108
97	0x81	-127
98	0x0a	10
99	0xe6	-26
100	0x81	-127
101	0x39	57
102	0xf7	-9
103	0x2c	44
104	0x43	67
105	0xfc	-4
106	0xf7	-9
107	0x8e	-114
108	0xae	-82
109	0x94	-108
110	0xa0	-96
111	0xd1	-47
112	0xba	-70
113	0x38	56
114	0x1d	29
115	0xd5	-43
116	0xf8	-8
117	0x69	105
118	0x82	-126
119	0x01	1
120	0x11	17
121	0x1d	29
122	0x1c	28
123	0xff	-1
124	0xc6	-58
125	0xa0	-96
126	0x0d	13
127	0x1b	27
128	0xfb	-5
129	0x53	83
130	0x44	68
131	0xa0	-96
132	0xc0	-64
133	0x81	-127
134	0xb3	-77
135	0xb8	-72
136	0xff	-1
137	0x0b	11
138	0x4a	74
139	0x2f	47
140	0xa6	-90
141	0x51	81
142	0x51	81
143	0xee	-18
144	0x2b	43
145	0x0e	14
146	0x06	6
147	0x25	37
148	0x44	68
149	0xc7	-57
150	0xcc	-52
151	0xf3	-13
152	0xb1	-79
153	0xbc	-68
154	0x4f	79
155	0xc1	-63
156	0x1c	28
157	0x6b	107
158	0x45	69
159	0x23	35
160	0x00	0
161	0xef	-17
162	0x5b	91
163	0x81	-127
164	0x08	8
165	0xe9	-23
166	0x22	34
167	0xc5	-59
168	0x31	49
169	0x46	70
170	0x98	-104
171	0x87	-121
172	0x53	83
173	0xc0	-64
174	0xaa	-86
175	0xb8	-72
176	0xf6	-10
177	0x08	8
178	0x19	25
179	0xf9	-7
180	0x35	53
181	0xbc	-68
182	0x0a	10
183	0x86	-122
184	0x9e	-98
185	0x0d	13
186	0x14	20
187	0xa9	-87
188	0x81	-127
189	0x86	-122
190	0xe4	-28
191	0x37	55
192	0x2a	42
193	0x9e	-98
194	0xe3	-29
195	0x0d	13
196	0x85	-123
197	0x05	5
198	0x96	-106
199	0xa5	-91
200	0x9c	-100
201	0xb4	-76
202	0x72	114
203	0x0f	15
204	0xf1	-15
205	0xf6	-10
206	0x81	-127
207	0xe7	-25
208	0x6c	108
209	0x98	-104
210	0x54	84
211	0xdd	-35
212	0x87	-121
213	0x9f	-97
214	0x4b	75
215	0xea	-22
216	0x54	84
217	0xf4	-12
218	0xe3	-29
219	0xef	-17
220	0xf6	-10
221	0x4d	77
222	0xac	-84
223	0x6a	106
224	0xb9	-71
225	0x5a	90
226	0xbc	-68
227	0x28	40
228	0xa5	-91
229	0x2a	42
230	0xb9	-71
231	0x0a	10
232	0x51	81
233	0x81	-127
234	0xa3	-93
235	0x24	36
236	0x60	96
237	0xaf	-81
238	0xf2	-14
239	0x41	65
240	0x5e	94
241	0xe6	-26
242	0xf5	-11
243	0xa5	-91
244	0x2b	43
245	0x95	-107
246	0x55	85
247	0xfd	-3
248	0x2f	47
249	0x18	24
250	0x6b	107
251	0xbc	-68
252	0xba	-70
253	0x38	56
254	0xca	-54
255	0x2a	42

tfl.pseudo_qconst5 i1 [96, 24]
0	0xf4	-12
1	0x1b	27
2	0xfb	-5
3	0xc8	-56
4	0x48	72
5	0x36	54
6	0x22	34
7	0x3f	63
8	0x37	55
9	0xf7	-9
10	0x32	50
11	0xc2	-62
12	0xf8	-8
13	0x2d	45
14	0x11	17
15	0x0b	11
16	0xe5	-27
17	0xed	-19
18	0xd1	-47
19	0x2e	46
20	0xb5	-75
21	0x21	33
22	0x81	-127
23	0x1f	31
24	0x48	72
25	0x38	56
26	0xf0	-16
27	0x41	65
28	0xfe	-2
29	0x47	71
30	0x81	-127
31	0x9c	-100
32	0x06	6
33	0xf1	-15
34	0x39	57
35	0xee	-18
36	0x9b	-101
37	0x8b	-117
38	0x27	39
39	0x9d	-99
40	0xfe	-2
41	0xcc	-52
42	0x06	6
43	0x50	80
44	0x15	21
45	0x07	7
46	0xe0	-32
47	0xf8	-8
48	0xa4	-92
49	0x83	-125
50	0x5a	90
51	0x02	2
52	0x52	82
53	0xa7	-89
54	0xd1	-47
55	0xe0	-32
56	0x27	39
57	0x6d	109
58	0x46	70
59	0x20	32
60	0x05	5
61	0x92	-110
62	0xf4	-12
63	0xfe	-2
64	0x81	-127
65	0x45	69
66	0x38	56
67	0x69	105
68	0x07	7
69	0x6c	108
70	0xc2	-62
71	0xd1	-47
72	0x9b	-101
73	0x7f	127
74	0x5a	90
75	0xe3	-29
76	0x79	121
77	0x05	5
78	0xb0	-80
79	0x37	55
80	0x62	98
81	0x03	3
82	0xd8	-40
83	0xb6	-74
84	0x73	115
85	0xf6	-10
86	0xf9	-7
87	0xa0	-96
88	0x98	-104
89	0xe3	-29
90	0x98	-104
91	0x1a	26
92	0x42	66
93	0xe8	-24
94	0x93	-109
95	0x20	32
96	0xf0	-16
97	0x45	69
98	0x44	68
99	0xf9	-7
100	0x53	83
101	0xb5	-75
102	0x10	16
103	0x2b	43
104	0x29	41
105	0xfe	-2
106	0xec	-20
107	0xfa	-6
108	0x33	51
109	0xcb	-53
110	0x0e	14
111	0x20	32
112	0x40	64
113	0xfc	-4
114	0xe6	-26
115	0xf4	-12
116	0xc2	-62
117	0x7f	127
118	0xdd	-35
119	0xe9	-23
120	0xe5	-27
121	0xe5	-27
122	0x0a	10
123	0x54	84
124	0x3f	63
125	0xee	-18
126	0xd7	-41
127	0x0d	13
128	0x11	17
129	0x3e	62
130	0xca	-54
131	0xe0	-32
132	0xc7	-57
133	0x56	86
134	0x05	5
135	0x71	113
136	0x2f	47
137	0x0f	15
138	0x58	88
139	0x7f	127
140	0x28	40
141	0xe5	-27
142	0x00	0
143	0x0d	13
144	0x33	51
145	0x19	25
146	0xd3	-45
147	0x16	22
148	0x22	34
149	0x0e	14
150	0xfd	-3
151	0x30	48
152	0x1f	31
153	0x0a	10
154	0x22	34
155	0xca	-54
156	0xed	-19
157	0x06	6
158	0x33	51
159	0xcd	-51
160	0xfc	-4
161	0x06	6
162	0x81	-127
163	0x01	1
164	0xff	-1
165	0x32	50
166	0x29	41
167	0x4f	79
168	0x7f	127
169	0x1d	29
170	0x27	39
171	0x64	100
172	0xbb	-69
173	0x2d	45
174	0xa0	-96
175	0x03	3
176	0x33	51
177	0xd2	-46
178	0xe6	-26
179	0xbd	-67
180	0x2c	44
181	0x05	5
182	0x32	50
183	0x10	16
184	0x2f	47
185	0xf0	-16
186	0x0b	11
187	0xfb	-5
188	0x2c	44
189	0xc6	-58
190	0x0a	10
191	0x06	6
192	0x20	32
193	0x13	19
194	0xcf	-49
195	0xe2	-30
196	0xf7	-9
197	0xfb	-5
198	0xf3	-13
199	0x81	-127
200	0x16	22
201	0x13	19
202	0xc8	-56
203	0x2c	44
204	0xf1	-15
205	0x33	51
206	0x20	32
207	0xcb	-53
208	0x7d	125
209	0x5b	91
210	0x18	24
211	0x19	25
212	0xe0	-32
213	0x55	85
214	0xa6	-90
215	0x0b	11
216	0xf7	-9
217	0x1d	29
218	0xf4	-12
219	0xe5	-27
220	0x11	17
221	0x50	80
222	0x3c	60
223	0xea	-22
224	0x14	20
225	0xe9	-23
226	0xbd	-67
227	0xc0	-64
228	0xf1	-15
229	0xfb	-5
230	0x25	37
231	0xef	-17
232	0x21	33
233	0x9d	-99
234	0x3e	62
235	0x0b	11
236	0x38	56
237	0x7f	127
238	0xf4	-12
239	0xb7	-73
240	0xf1	-15
241	0xf7	-9
242	0xef	-17
243	0xc8	-56
244	0x4c	76
245	0xcf	-49
246	0x2b	43
247	0x98	-104
248	0x7f	127
249	0xfc	-4
250	0x09	9
251	0xc7	-57
252	0x0e	14
253	0x31	49
254	0x16	22
255	0x13	19
